saved_model/char-rnn-generation.pt (torch_old, 200138 bytes, 6 tensors)

weight f4 [58, 204]
00000000: 8ca1 4840 4233 8840 b20e 2740 53a3 8840
00000010: 89c0 7040 4746 5e40 9c8c 8140 13da 6240
00000020: 2872 0b40 8684 2940 9eda 7e40 f4eb e340
00000030: 702c 2a40 4533 5940 44b7 2140 a3a6 3140
00000040: bf9d 5a40 acbb 9840 f8fa 3a40 1407 aa40
00000050: f42d a43e 5e48 6240 bd89 ec3f 5d0d 8740
00000060: d1d7 7940 dcb0 0940 99fc 6140 69da 5640
00000070: 336a 2740 8046 3340 5a46 8440 5080 b740
00000080: 06b5 3a40 15d5 a340 e45a e63e 3b6c 8840
00000090: e7da 5840 22c7 2140 19d5 f83f 4b14 6240
000000a0: 1b2a e33f f3de 4040 8163 9840 ffc9 f63f
000000b0: 14b7 75bd d8ce e53c 2140 81bd f49a ca3c
000000c0: eac0 1b3d 98ef cebc 9c1e 7ebd 6c99 7bbd
000000d0: 3689 193d 5081 adbb a871 bc3c a85c 03bd
000000e0: f861 223c 880a 713c d625 39bd a477 863c
000000f0: a078 153d cc1c 553d c019 da3c 54e2 ddbc
00000100: 041a 57bd 905a f13c eed2 383d 86c0 653d
00000110: fcdf 933c cc1d 243d b3f3 1640 9c3a 73bc
00000120: 0472 1740 284d 68bc 2bf7 3540 e3ff 8b40
00000130: edb1 283f 2feb b3bd 0dd3 533e d296 2b3e
00000140: e0fb 42be d85a 7a3d 3b53 31be fd67 153e
00000150: 7a5b 2a3d 7765 4f3f 43ba 7bbd 5bd9 b23d
00000160: e198 eb3d f94b eb3f bc7e a63d 4b08 263c
00000170: 31fb 233e 5e3e c93f 0876 323d c8d9 bb3e
00000180: f333 303c 1e08 d33c f77e 21be 150b 8b3c
00000190: df66 2a3c 4337 f7bd af3c 623e 430e e0bd
000001a0: 0397 9fbf 2d1b d6bc e398 99be bb13 23bd
000001b0: 2e63 a13d 9c33 973d 57fa 633d 77d2 85be
000001c0: 6ee3 283c 12b3 eebd db15 1bbe d918 473c
000001d0: 9aca 25be 1af0 a0bd 13f5 623d 4ff0 443d
000001e0: d8b2 f5bc 03cb 793d 0d74 e2bd f4a6 d83e
000001f0: e80f 26be f5f5 7bbf 8385 30be 6dfe 29bd
00000200: 0d15 bb3e a6c6 2abe 38d6 e33d 128a 7ebc
00000210: 732c 663d b4e2 333e 85a0 bebd 45ab 68bf
00000220: 38b6 be3d c555 723d 699b 1f3d aeb5 a93b
00000230: 14a1 afbd 881d 263f 2cee 12be baec fdbd
00000240: f550 4abc 7b33 353e ef9b f33d 5831 39bf
00000250: 5cf4 093d 3b5e 3cbe 4e20 193e 80de ff3d
00000260: 841d 16be d9d0 923d 2589 ccbd 9be5 f6bd
00000270: 9448 53be eeef 603d 6c01 b5bd feb3 0dbc
00000280: 42e7 e63d 73a4 bfbe f43e 6dbe 47ce 3a3d
00000290: 285e 59be e79a fcbb 0fa1 023d edac 873e
000002a0: d93b 0f3e 261a ccbf 38c1 1abf beec 923d
000002b0: 32d7 7fbc ac3e 97bd c386 f3bd 411e d2be
000002c0: 1aa9 2bbf fbc8 61be 2458 04c0 ea90 42be
000002d0: 366b 96bd dd51 db3d fdfc d03d a0e7 c7be
000002e0: d3b1 3bbe f738 243d f23d 343c baa6 fe3d
000002f0: 9c9a db3d 8729 77be 2cfd f63c b8cd b6bd
00000300: b352 003e 89dd d5bc 17dd 283d ac3b 2ebf
00000310: 52b5 08be de8a a83d 5132 c73b 5ed4 46be
00000320: e31b f63e f128 9dbd 9cf6 25be 26b3 ccbb
00000330: 012c c83e d73c f53e bbef ce3e 0ed8 cb3e
00000340: b24d b73e 0dc4 ef3e 804a eb3e b723 de3e
00000350: f2db b13e 58e9 eb3e 7f19 053f 1ecc e43e
00000360: 3470 ef3e a772 303f cfe2 043f 4528 e43e
00000370: 5eac be3e 44a0 723f 9dfa 733e 34a4 6c3e
00000380: 46a5 193e e328 973e cf0c a03e e020 183f
00000390: aeac a33e 26c3 ab3e 6778 b63e a789 a53e
000003a0: 4b01 8a3e cfda 833e 553d 2f3e 63ff 403e
000003b0: d4bc 8b3e 68bc f13e be06 2abf aca8 ac3e
000003c0: 07b2 a53e cb88 b53e 91c6 8b3e 4330 9d3e
000003d0: 676e d63e 78b0 96bb 26ee b93e f4c4 923e
000003e0: 4cd2 4cbd 9c19 af3c 40cb 03bd 2e6a 1f3d
000003f0: 4d9b 64bd 28fa 71bc 2d49 88bd 4820 623c
3.13486 4.256257 2.610272 4.269937 3.7617514 3.4730394 4.048414 3.5445602
2.1788425 2.6487136 3.9820933 7.122553 2.6589622 3.3937542 2.5268106 2.7757957
3.415878 4.772909 2.921568 5.313364 0.3206631 3.535667 1.8479534 4.2203813
3.9037974 2.1514196 3.5310423 3.3570807 2.615857 2.801178 4.133588 5.734413
2.9172988 5.119761 0.4499122 4.2632117 3.3883607 2.527779 1.9440032 3.5324886
1.7747225 3.0136077 4.7621465 1.9280394 -0.05998905 0.028052732 -0.0631106 0.02473209
0.038025774 -0.025260732 -0.06204091 -0.06142561 0.03748437 -0.0052949563 0.023003414 -0.032070786
0.009911053 0.0147119835 -0.0452021 0.016414471 0.03649199 0.052029416 0.026623607 -0.02708546
-0.052515045 0.029462129 0.045123033 0.056091808 0.01805114 0.04006748 2.3586242 -0.0148455165
2.366334 -0.014178552 2.843211 4.374986 0.65896493 -0.08785092 0.20685978 0.16756752
-0.19041395 0.06112179 -0.17316906 0.1459045 0.041591145 0.810142 -0.06145693 0.087328635
0.11503769 1.838256 0.081296414 0.010133813 0.1601379 1.5722158 0.043569595 0.3668959
0.010754573 0.025760707 -0.1577109 0.016973058 0.010400503 -0.12071087 0.22093461 -0.1094022
-1.246796 -0.026136005 -0.29999456 -0.03981374 0.07880245 0.073828906 0.055658665 -0.26137134
0.01030813 -0.11655249 -0.15145056 0.01215192 -0.16190568 -0.07858296 0.055409502 0.04808074
-0.029992506 0.060984623 -0.11057291 0.42314875 -0.16217005 -0.98422176 -0.1723843 -0.041502405
0.36539498 -0.16677341 0.11124843 -0.015535848 0.056194734 0.17566949 -0.093079604 -0.90886337
0.09312099 0.059163827 0.03896657 0.0051791286 -0.08575645 0.6488881 -0.14348668 -0.12398668
-0.012348403 0.1769542 0.11894976 -0.7234092 0.033680305 -0.18395321 0.1495373 0.124936104
-0.14659697 0.07168741 -0.09987096 -0.120555125 -0.20633155 0.054916315 -0.08838162 -0.0086488705
0.11274578 -0.37430152 -0.23168546 0.045606878 -0.21227324 -0.0077088955 0.03189188 0.2649912
0.13987674 -1.594548 -0.6045108 0.07174061 -0.015615271 -0.073850006 -0.11890938 -0.41038707
-0.67054904 -0.22049324 -2.0678797 -0.19000593 -0.073446676 0.107089736 0.10204504 -0.39043903
-0.18329553 0.04009339 0.011001097 0.12434144 0.10722849 -0.24136935 0.030150019 -0.089259565
0.12531547 -0.026106613 0.041226473 -0.680598 -0.13350418 0.08229612 0.006078996 -0.19416949
0.4806815 -0.076738246 -0.16207355 -0.006246942 0.39096072 0.4789798 0.40417275 0.39813274
0.35801464 0.46829262 0.45955276 0.43386623 0.34738117 0.46076465 0.5199203 0.4468698
0.46765292 0.68924946 0.5190858 0.44561973 0.3724088 0.94775796 0.2382607 0.23109514
0.15004453 0.29523382 0.31259772 0.59425163 0.31967682 0.33547324 0.35638735 0.32331583
0.2695411 0.25752875 0.1711324 0.18847422 0.27292502 0.47214055 -0.6641654 0.33722436
0.32362387 0.35455927 0.27299932 0.30700883 0.41881105 -0.0045986734 0.36314505 0.28665888
-0.050005242 0.021374516 -0.032176256 0.03891962 -0.05581217 -0.014769115 -0.06654582 0.013801642

bias f4 [58]
00000000: f7eb d7c0 9f56 37bf 77a1 f53f 4542 e23e
00000010: 1227 603e e48d 3340 36cc dcbe 7512 853f
00000020: a519 81c1 d8b7 b1bf dab5 2abf 1c57 063d
00000030: c46a a3c0 3d83 70c0 99ce 2bc0 dbb2 e93e
00000040: d793 023f d1dc c63f b611 45c0 fa24 563e
00000050: 2cb2 d040 566c b3bd 4c98 e23f da62 ee3d
00000060: 3ce7 8cbc f713 52bf d98e 2dc0 2c08 f9c0
00000070: 3e36 0fc1 153e 973f ce2f 28c0 df5d 36c1
00000080: 8ec3 94bf 5185 6440 6c7d c6c0 dc74 54bf
00000090: 022c e9bf 735c 863f 0608 bbbe 27bc 5cc1
000000a0: d1e1 36c1 5873 4f3e 79a9 b23d 894a 03bd
000000b0: 6a33 a6c0 4506 7640 c6c5 b63e d9d1 783f
000000c0: 28d3 3f40 992e 06c0 8242 81bf b7cf 3ebf
000000d0: 6997 4d41 fade 7140 9e25 c23f de89 593f
000000e0: 299b 8dbf c516 7d40
-6.7475543 -0.7161655 1.91899 0.44191185 0.21889904 2.8055353 -0.4312455 1.0396258
-16.137522 -1.388423 -0.66683733 0.032797918 -5.106783 -3.7580101 -2.6844847 0.45644268
0.51006836 1.5536138 -3.079206 0.20912543 6.5217495 -0.08760898 1.7702727 0.11639948
-0.017200105 -0.82061714 -2.7118437 -7.7822475 -8.950743 1.1815821 -2.6279178 -11.397918
-1.1622179 3.570637 -6.2028103 -0.82990813 -1.8216555 1.0496963 -0.3652956 -13.795936
-11.430131 0.20258844 0.087237306 -0.032053504 -5.193776 3.8441327 0.35697764 0.971952
2.997263 -2.096594 -1.0098422 -0.745357 12.849465 3.7792344 1.516773 0.84975994
-1.1062976 3.9545147

weight f4 [128, 204]
00000000: b73c b6bf f7d5 c1bf c552 acbf 17a8 aebf
00000010: 7533 abbf 858a abbf 1f38 b8bf 0f0d a6bf
00000020: 9961 c8bf 049c 9abf 8a25 b6bf 64a6 a5bf
00000030: ce40 aabf 5242 d6bf bb80 8ebf 6f90 d8bf
00000040: ab34 dbbf 5fee 1ec0 066c 84bf 4392 d5be
00000050: 871d 50bf d1bc c5be 7d00 40bf 907f 29bf
00000060: 348b 86bf 58c7 67bf 705b 2ebf 8414 77bf
00000070: e964 39bf ade5 78bf a0eb 83bf 779a 7cbf
00000080: 291b 54bf 69e6 8abf f951 57bf fc5d 55bf
00000090: b4e4 26bf bf15 41bf 60a3 4bbf 6b56 88bf
000000a0: 9d4f 2dbf 12ad 1bbe 03d2 d8be 5c90 4cbf
000000b0: dc3d 533d 98e1 3bbc 6820 ffbc 948f e1bc
000000c0: 5889 81bc 6e72 793d 9482 95bc c0eb 303c
000000d0: 44d9 e13c 221c 7a3d 0095 74bd 81ae 28bd
000000e0: d22c 3cbd c426 8fbd 3c25 c3bc 262d 46bd
000000f0: 9a50 523d 70ae 933b 787a f7bc 3eb4 1e3d
00000100: 58fc 1c3c e07c 143c bc8e 15bc ae9b 7a3d
00000110: 9081 b9bb ca88 723d 1c57 fbbd c0ea e8bb
00000120: c068 8aba 0406 203d c58c 09bf 2078 50bf
00000130: 685f 2ebe a4a6 853d b1ec 883c 9fb9 793c
00000140: 4454 22bc a7ec 083d 316b 203d dbbb 2abe
00000150: 3793 e2ba 8178 633c e3d1 313e 3c71 383e
00000160: 05a4 53bc b7f2 99bd 59db b9bc 8d82 2c3d
00000170: 5fba ee3b 238b 11be 61bc 3c3d 9f0d 533c
00000180: 4224 e0bc 8f24 263c 5114 413d d697 bd3b
00000190: c6d8 8f3c 3a65 fb3c 8618 74bc ea4b 8dbd
000001a0: 25ab 783e 65f8 203d 7365 edbc cde2 a8bc
000001b0: e632 383b a4a0 7ebd 6a09 fa3c e0f8 c63c
000001c0: 97e7 00bd 0241 5a3d db9a aabb 2124 ac3c
000001d0: 99bb 08bd 32f9 04bd f054 763c 7430 673c
000001e0: 966c e9bc e3bb e03a 1551 a13d 7b2e d03d
000001f0: 97e6 43be 529a 4e3e b1cd c93b 8f2e babd
00000200: 25d8 cfbc ec53 d6bc d9c9 613d 796c a4bc
00000210: c6e5 c2bc b226 383d 17f6 05bd caf7 88bc
00000220: 9a6f e33b 42fd fb3c 4be6 103d 8406 12bc
00000230: ca88 4b3d de6b 10be d39d 113c d81f 2cbd
00000240: 1271 723d ccce 06bd 4593 d0bb 3765 24bb
00000250: f876 0f3d 59d3 d0bc 8c77 be3d 7e2b 10bd
00000260: 8f08 703a 3ca6 b23d d6ac da3c 03f2 9abc
00000270: 8108 26bc 8408 e2bc d713 323b 632f 693d
00000280: abe0 5c3b 7ece aa3c c557 8e3c 946a 3b3d
00000290: 4de0 76bc 5ec6 c53b e4ba 34bc 3da9 9f3c
000002a0: 7694 0abc 0ae2 9bbd 7ecb 6b3e c1dd 78bc
000002b0: 1b38 62bd 2a55 d1bc 4b7d 233c b5fd 1f3e
000002c0: 50c6 773d e476 523d 36de cfbd e2c0 1a3d
000002d0: 3a76 373d 07c7 1dbd a424 84bb edbd 4ebd
000002e0: 63ef a0bd f0ab 3b3c 394b b03c 14bc a73c
000002f0: 73c4 70bd 188f a93c 3347 f7bc 638f 003d
00000300: 0f0b a43d e8ab 373d 445d fab8 0a62 bd3b
00000310: 8011 883d d32f 113d fddd 41bd 5e9a 13bb
00000320: 1327 2e3d 487d b03c 71f3 613a c1ec 453d
00000330: 8997 37bc 0c48 a3bd b252 4abe 6c70 ddbc
00000340: 4df9 cbbd 8a7d c73c 2c33 b9bb 7648 863c
00000350: 9572 313e 3c99 a43c c460 d5bd 379f 97bd
00000360: 154d 943c 8af6 16bd 1040 a1bd fb69 b9bc
00000370: cc12 cbbd c499 a4bd 06ab 6c3d 5df3 083e
00000380: 84bb 4b3d 13dc d63d 36d5 fd3c f0bf fb3d
00000390: 836a a93d 5250 9f3d 331e f63d b979 a6bb
000003a0: e147 253e 2e93 063e 084e 873d c220 463d
000003b0: 2863 243e b066 0b3e 1877 953d ef8a 7b3d
000003c0: 098b 9d3d 012b fd3d b37c 643d 6b8e 183c
000003d0: e6de 3e3d 078f a9be 2a96 213e 8c7a d33d
000003e0: eeca 733d a024 2cbd b5be 853d dedf 6a3d
000003f0: 80c2 a6bc 38c9 543d cc0a 88bd 8086 903c
-1.4237279 -1.5143422 -1.3462759 -1.3645047 -1.3375078 -1.3401648 -1.4392127 -1.2972735
-1.5654784 -1.2078862 -1.4230206 -1.2941403 -1.3301027 -1.6738989 -1.1133035 -1.6919078
-1.7125448 -2.483299 -1.0345466 -0.4171315 -0.81295055 -0.38620618 -0.75000745 -0.6621027
-1.0511231 -0.9053855 -0.6810827 -0.9651568 -0.724196 -0.9722546 -1.0306282 -0.98673195
-0.82853943 -1.0851566 -0.84109455 -0.83346534 -0.65192723 -0.75423807 -0.79546165 -1.0651373
-0.67699605 -0.1520274 -0.42347726 -0.79907775 0.051572666 -0.01146736 -0.031143382 -0.027534284
-0.01581256 0.060900144 -0.018250741 0.010798395 0.02756942 0.061061986 -0.05971241 -0.041182045
-0.04594118 -0.06989816 -0.023821466 -0.0483829 0.0513464 0.0045068786 -0.030209765 0.03874611
0.009581648 0.009062976 -0.009128269 0.061183624 -0.005661197 0.059212483 -0.12272474 -0.0071080625
-0.0010559782 0.039068237 -0.5373042 -0.81433296 -0.17028582 0.06525925 0.016714426 0.015242009
-0.009907786 0.033428814 0.039164726 -0.16673224 -0.0017286305 0.013883711 0.17365222 0.18011945
-0.012917523 -0.07516997 -0.0226876 0.04211669 0.0072854008 -0.14213233 0.04607809 0.0128816655
-0.02736104 0.010140552 0.047138516 0.0057859225 0.01755942 0.030687917 -0.014898425 -0.06899245
0.24284036 0.039299387 -0.028979039 -0.02061596 0.002810651 -0.062164918 0.030522067 0.024288595
-0.03147086 0.053284653 -0.0052064485 0.021013321 -0.033382032 -0.032464214 0.015034899 0.014110673
-0.02849416 0.0017145838 0.07876793 0.101651154 -0.19130932 0.20176056 0.0061585535 -0.090909116
-0.02537162 -0.026163064 0.055124138 -0.020071255 -0.023791205 0.044958778 -0.032705393 -0.016719718
0.006940794 0.030760411 0.035375874 -0.008912686 0.049691 -0.14103648 0.008887726 -0.042022556
0.059189864 -0.03291206 -0.006365212 -0.0025084743 0.035025567 -0.025491403 0.093001455 -0.035197727
0.0009156549 0.08723113 0.026693743 -0.018914228 -0.010133863 -0.027591951 0.002717247 0.056929957
0.0033703248 0.020850416 0.017375836 0.045755938 -0.015068126 0.00603561 -0.011030886 0.019489879
-0.008458247 -0.07611473 0.23026845 -0.015189589 -0.055229288 -0.025553305 0.009978603 0.15624125
0.06049186 0.051382914 -0.10149805 0.037781604 0.044790484 -0.038519885 -0.004032688 -0.050474096
-0.078581594 0.011454567 0.021520244 0.020475425 -0.0587811 0.020698115 -0.030185318 0.031386744
0.08009922 0.044841677 -0.00011938301 0.0057795094 0.06643963 0.035446 -0.047330845 -0.002252243
0.042517733 0.021544114 0.00086193444 0.04832149 -0.011205562 -0.07972726 -0.19758108 -0.027031146
-0.0995966 0.024351854 -0.005651852 0.016391974 0.17328866 0.0200926 -0.10418847 -0.07403415
0.018103162 -0.03685621 -0.07873547 -0.022633543 -0.099156946 -0.08037141 0.05778029 0.13374086
0.049739376 0.104911946 0.030985456 0.122924685 0.082722686 0.07778992 0.12017479 -0.0050804284
0.16140701 0.13142082 0.0660668 0.048371084 0.1605345 0.13613391 0.07298106 0.061411794
0.076925345 0.12361718 0.055782985 0.009311299 0.04659929 -0.33116934 0.1577994 0.10326108
0.0595197 -0.042027116 0.06530515 0.057342403 -0.020356417 0.05194971 -0.06642684 0.01764226

bias f4 [128]
00000000: 0788 ff3f 2d3b 15bc d138 f7bd 01ae d4bd
00000010: 52fb d7bd cd1a b0be 1ebc fc3c 63bf 36c0
00000020: c14e 823c f552 b6be 48a3 3640 a3bb 2fbe
00000030: aa25 fd3d 53ae 3ebf 1d3b a9bd c8fe 35c0
00000040: d517 5a3e b535 9d3f 72a2 a4bd 9287 0e3e
00000050: d44e aa3d cb96 36be 4300 823d bc8f 17bd
00000060: 87fa c0bc 38b8 cabd 88bd da3c c18e eabc
00000070: 09b9 8a3f e664 b53d a28f 373e f577 403d
00000080: 6fdb f8bb fe7a 5ebd 2dc5 29bd 816e 5f3f
00000090: d4fc 043e ef52 3440 f563 ea3d 6fd2 eebd
000000a0: fe14 123e 9b54 7dbe f1ac 88be fb1f a9be
000000b0: 2e6f b83d 874e 5a3d 705c e2bc 2365 9740
000000c0: 1c56 96be 1d67 8b40 5bcf 4ebd 4487 193e
000000d0: 5bd1 9040 8e30 c0bc 69e2 8b3e 1fab 703d
000000e0: ed2b 113d 06af 79be 0569 58be 2ffb cc3f
000000f0: 2be2 bc3d 1a6c 5dc0 fc71 9cbd 5d00 b4bd
00000100: 4940 3ebe 5143 283f ae20 be3d 5ec7 063e
00000110: 3903 743e 33bb 943e 0110 7f3c c7de 51bf
00000120: b432 193d e791 47bd d155 b73f 1946 22bd
00000130: 3d09 933e 123a 0a3d f1f2 a7bd c438 103e
00000140: 9132 b2bd 19e1 c3bd e3d6 f03d 8a12 f8bc
00000150: d572 8ebd f6ce 87bd 7e8f fd3d 71c2 9dbd
00000160: 1b0a c3bd 7248 bfbd 05ff c8bd d36f 35be
00000170: 1b5e 4e3d cae9 2c3f a879 d23d 0a53 7f3e
00000180: 160b 31be bff2 2abe b16c 85bb 7f4e 593e
00000190: 8f99 8c3f 7894 66bd ded7 c0c0 f1ed cf3d
000001a0: 1446 6fbd c6e6 52bd a817 cb3e 7413 183e
000001b0: caf7 533d 529f 68bb 26ee d539 0de1 0cbe
000001c0: a640 023e 95da ecbf 31e4 42be 9071 9c3e
000001d0: 8489 6eba ff51 85bd 52f6 f23c 25ec b3be
000001e0: c1a2 003e b167 0e3e 8b31 bcbd 9b09 1abd
000001f0: 88b3 93bf 17cd 24be 7e74 363e 16ad 02be
1.9963387 -0.009108347 -0.12071384 -0.10384751 -0.105459824 -0.34395447 0.03085142 -2.8554313
0.015906693 -0.35610166 2.853716 -0.17161421 0.123606995 -0.7448475 -0.08263228 -2.8436756
0.21298154 1.2282015 -0.080387965 0.13918903 0.083158165 -0.1783096 0.06347706 -0.03700231
-0.02355696 -0.09898418 0.026701704 -0.028632523 1.0837718 0.088571355 0.17925885 0.0469894
-0.007594518 -0.054316513 -0.041447807 0.8727799 0.12987071 2.8175619 0.114448465 -0.11661231
0.1426582 -0.24739306 -0.26694444 -0.33032212 0.09005581 0.053297546 -0.027631968 4.731096
-0.2936257 4.356337 -0.05049072 0.14993006 4.525556 -0.023460653 0.27321175 0.058756944
0.03544228 -0.24383172 -0.21133812 1.6014155 0.092228256 -3.459723 -0.07638928 -0.08789132
-0.1857921 0.65727717 0.09283577 0.1316199 0.23829354 0.29049072 0.0155677805 -0.81980556
0.03740187 -0.048723128 1.4323064 -0.03961763 0.28717986 0.033746786 -0.08200634 0.14084154
-0.08701051 -0.09564418 0.117597364 -0.030282278 -0.06955496 -0.066312715 0.123808846 -0.077031024
-0.09523412 -0.0933999 -0.09814266 -0.17718439 0.050382715 0.67544234 0.1027711 0.2493402
-0.17289385 -0.16694163 -0.004071795 0.2122135 1.0984362 -0.056293935 -6.026351 0.101528056
-0.05841644 -0.051489614 0.39666486 0.14851171 0.051749982 -0.0035495353 0.0004080396 -0.13757725
0.12719974 -1.8504206 -0.1903236 0.3055539 -0.0009099471 -0.0650978 0.02965847 -0.351411
0.12562086 0.13906743 -0.09189137 -0.037606817 -1.1539164 -0.1609386 0.17817876 -0.1276134

weight f4 [58, 186]
00000000: fd06 6040 6829 9d3d 0ec5 a540 78de c0be
00000010: 0712 32be 6b53 c8c0 fd4e 59be 59ef 3a3e
00000020: c43a 5140 715a c23e da2e 463f 8ff5 8cbe
00000030: e702 c140 249b ea40 9b2c 3740 6f75 1b3e
00000040: 3bef d0bb 0cc8 6940 4083 1cbf d63f 303c
00000050: 08f1 9540 f295 21bf a41d 4b3c 0588 b340
00000060: 6cce 8bbf 2eb2 fc3f d791 08c0 fbe3 54bf
00000070: 067b e4c0 8031 8e3e 169a a8c0 3b36 7640
00000080: d5cf 083d c89d 99be c494 a2be c3d2 8b3d
00000090: 0dfe 0bbf cdec 723f e8ab e1bf 4cb4 b6bf
000000a0: 584a 9fc0 2511 2440 b67a d8bf 156f 063f
000000b0: 8f2b 6d40 1df9 873d fbfa 013e 3fcc f3be
000000c0: 7bec d1c0 aa17 ab3f 788a be3f d9a8 e73f
000000d0: 0676 81c0 bd0e 4d40 3de9 7cbc 2723 31bd
000000e0: 4c37 7f3f 73f8 28bf 8b6c c8bf 5212 933b
000000f0: 4df7 933e d1b9 c33e 34c2 4abd f30a 5e3e
00000100: 7151 7f3f 99ad ccbf adfa 87be 591c 51bf
00000110: 20c3 363f 844f 333e aaf3 e83d b05e b3c0
00000120: f30b 353e 356c 423f 02e8 fbbd 12f3 393f
00000130: a67a a63e afc6 d1be 4da8 d9be baba 753e
00000140: 5756 47bf 7bf0 cbbe 8655 9cbe 9cb3 28be
00000150: 33aa abbd dc6c 1a3e c6c7 2f40 62f8 8c3e
00000160: 49ee e43e dc8c ee3d 4c19 e1bd 1a2f 21be
00000170: d805 803e ce7b 963e 32b7 dc3b 1902 a5bf
00000180: 7028 0dbe c10f d83e 968d b93c 20f2 4f3e
00000190: d6e6 be3e 83b7 febd 22ba 17bd ae93 663e
000001a0: 6ea7 9a3d 5446 24c0 23bf 4dbf 7c97 0140
000001b0: 69d4 a8bc 718c 95be aa6a 4840 6313 a63e
000001c0: 5a52 4fbd cbf4 de3b 9001 4fbe 0278 91bc
000001d0: 8958 133e 5d46 0040 a4ca 87bc 6ead 4440
000001e0: 3488 a5bd 57e5 563e fa91 14be 7afa 9dc0
000001f0: 5629 9b3e 57d7 71bc 09a4 5bbe c87b 883e
00000200: 85a0 c83e 7db0 973f ff2d b03d 0613 b83e
00000210: fb0b 4e3f 6f37 84bd 5563 943e c4a7 b4be
00000220: 9069 e83d 1b03 d93d b0b1 293f daab 43bf
00000230: 14e3 59bd a6df 20be 0ee9 9b3e 6366 2c3e
00000240: 8b0d 5b3e 904a 3ebe 7edf 103f 01e8 9dbe
00000250: b354 8abe 9bd3 bbbe 090e 33bd 3d3e 9cc0
00000260: 3327 dd3e b44a cfbc f938 293d d3e9 603d
00000270: 30b5 72bc 4e37 963f ca18 2ebe 1f5d 0abe
00000280: 00e4 1cc1 8f32 c9be e2c2 3ebe f673 5e3d
00000290: d985 09be e522 8abe 552f da3e d201 073e
000002a0: de51 373e dc4f 863e 7556 d13e 6702 62bf
000002b0: 39b0 123d 6682 813e 8fad b43d 9345 81bc
000002c0: 0931 dabd 98c0 f1bd 7b6b 8ebb adb9 8b3e
000002d0: 64dc 923d d839 6b3e 5cea bb3f 6a23 d03e
000002e0: cc47 fcbc 41df 6b3e a215 6a40 7cd9 9b3d
000002f0: 2692 9c40 5e05 e0be d004 50be 4550 c8c0
00000300: 5c91 7ebe 7254 e43d bbba 5840 7fab a83e
00000310: 8c44 403f b878 68be 1c60 c240 c924 ef40
00000320: 7b65 3f40 a726 2c3e df5c 0c3d 3c0c 6940
00000330: c59d 13bf e451 423b 4b0c 9440 72df 1bbf
00000340: 679d 443d 4c6c ad40 b6cf 94bf cfef fe3f
00000350: 1ec3 0cc0 0e5f 3fbf 7c4a ecc0 ac7f cc3e
00000360: 0bd3 a6c0 d3cd 7840 d224 333c b738 97be
00000370: 15f2 2ebd f229 7b3d fd05 17bf 8402 6b3f
00000380: 076a debf 74c2 d8bf 7fd6 a4c0 b7a9 2b40
00000390: 9714 d8bf db8e 0b3f ad46 4840 db3e fd3b
000003a0: b6df 1f3e 5023 f7be 7f61 cac0 641c a23f
000003b0: 89b9 b83f 2160 ea3f f3cb 81c0 5b28 5340
000003c0: d1a3 c9bc 6c3e c1bd 61a0 863f 59eb 46bf
000003d0: c1d2 c5bf dbd3 0ebd 13b0 043f cd69 f73e
000003e0: 4b39 3ebe 3ff2 003e c244 873f 3948 c8bf
000003f0: 49ba fcbd edef febf d627 64bd 6341 20be
3.5004265 0.07673913 5.1803045 -0.3766973 -0.1738969 -6.260183 -0.21221538 0.18255366
3.2692118 0.37959626 0.7741524 -0.27531096 6.0316043 7.331438 2.8620975 0.15181516
-0.0063761747 3.652835 -0.6113777 0.010757407 4.6856728 -0.63119423 0.012397204 5.610354
-1.092237 1.9741876 -2.1339014 -0.8316037 -7.1400175 0.2777214 -5.2688093 3.84706
0.03340133 -0.3000319 -0.31754124 0.06827309 -0.54684526 0.9489258 -1.7630587 -1.4273772
-4.977825 2.5635464 -1.6912448 0.5251325 3.7057836 0.066393115 0.12693398 -0.47616765
-6.5601172 1.3366597 1.4886007 1.8098403 -4.045657 3.2040246 -0.015436468 -0.043246415
0.9969375 -0.66004103 -1.5658125 0.004488268 0.28899613 0.38227704 -0.049501613 0.21683864
0.99733645 -1.5990478 -0.26558438 -0.8168388 0.7139149 0.17510802 0.113746 -5.6053085
0.1768034 0.7594636 -0.12300111 0.7263652 0.32515448 -0.40971896 -0.42511216 0.23997012
-0.7786612 -0.3983191 -0.30534 -0.16474766 -0.08382072 0.15080589 2.7465682 0.2753325
0.44713047 0.116479605 -0.10991153 -0.15740624 0.25004458 0.2939133 0.006735706 -1.2891265
-0.13784957 0.4219952 0.022650521 0.20307207 0.3728549 -0.12437346 -0.037042744 0.22517273
0.07551466 -2.5667925 -0.80369776 2.0248709 -0.020609098 -0.2920871 3.1315103 0.32436666
-0.050615646 0.006804084 -0.2021544 -0.01775742 0.14389242 2.0042946 -0.016576119 3.0730853
-0.08082619 0.20985924 -0.1450881 -4.9368258 0.30304974 -0.014760814 -0.21449293 0.26656938
0.39184967 1.1850735 0.08602523 0.35952014 0.8048703 -0.064558856 0.28982034 -0.35284245
0.113482594 0.105962954 0.66286755 -0.764341 -0.053195074 -0.15710315 0.30451244 0.16835932
0.21391885 -0.18583131 0.5659102 -0.30841067 -0.27017745 -0.3668488 -0.043714557 -4.8825974
0.4319397 -0.025304176 0.0413141 0.054910492 -0.014813706 1.1735628 -0.17001644 -0.13512085
-9.805664 -0.39296386 -0.1862903 0.054309808 -0.13429965 -0.26979747 0.42614236 0.13184288
0.17902324 0.26232803 0.40886274 -0.88284916 0.03581259 0.252948 0.08822166 -0.015780246
-0.10653884 -0.118043125 -0.0043463088 0.27290097 0.071709424 0.22971284 1.4680896 0.4065202
-0.030795954 0.23034383 3.6575704 0.07609841 4.8928404 -0.43754095 -0.20314336 -6.2597985
-0.24860138 0.11148919 3.3863971 0.3294334 0.75104594 -0.227023 6.074232 7.4732404
2.9905689 0.1681162 0.034268256 3.6413717 -0.5766261 0.0029650861 4.6265006 -0.60887825
0.048001673 5.41947 -1.1625888 1.9916934 -2.199409 -0.74754417 -7.3840923 0.39941156
-5.213262 3.8875625 0.010934072 -0.29535457 -0.042711336 0.0613193 -0.5899351 0.91800714
-1.7376107 -1.6934342 -5.1511836 2.6822336 -1.6881284 0.54514855 3.1293137 0.00772844
0.15612683 -0.4826913 -6.3244014 1.2664914 1.4431621 1.8310586 -4.056146 3.299338
-0.024614247 -0.09435734 1.0517694 -0.7770286 -1.5454942 -0.03487001 0.5183117 0.48322907
-0.18576543 0.1259241 1.0567858 -1.5647041 -0.123402186 -1.991697 -0.055702053 -0.15649943

bias f4 [58]
00000000: 0b75 1cc1 ca87 11c1 e397 23c1 c284 21c1
00000010: 0d81 1ec1 4d56 36c1 f5b5 1ec1 12e0 24c1
00000020: dc6c 19c1 d903 47c1 1cac 23c1 f84a 18c1
00000030: b94a 16c1 4219 24c1 cc79 27c1 1cf1 37c1
00000040: 3e5f b8c1 760d 1bc1 f4c9 1cc1 f444 18c1
00000050: 203d 1ec1 7a20 48c1 6c4c 20c1 b6b5 93c1
00000060: 6e61 27c1 0b41 1fc1 39ba 05c2 08cc 05c2
00000070: 1acc 05c2 c1bb 05c2 dac5 05c2 56be 05c2
00000080: 3cba 05c2 35cd 05c2 aebc 05c2 92bb 05c2
00000090: 41c1 05c2 0dc9 05c2 c1c7 05c2 72be 05c2
000000a0: 5dc1 05c2 e7c2 05c2 2cba 05c2 a3c2 05c2
000000b0: 69d0 05c2 34bc 05c2 90b6 05c2 5ae2 05c2
000000c0: 1acd 05c2 1bd9 05c2 59ab 05c2 f6c7 05c2
000000d0: 4c98 94c1 abc4 05c2 4870 01c2 f9b2 05c2
000000e0: 9bdc bac1 8710 44c1
-9.778575 -9.095652 -10.224582 -10.094912 -9.906507 -11.39607 -9.919423 -10.304705
-9.589077 -12.438439 -10.229519 -9.518303 -9.393243 -10.256166 -10.467236 -11.496365
-23.046505 -9.690786 -9.799305 -9.516834 -9.889923 -12.507929 -10.018658 -18.463726
-10.461287 -9.95338 -33.431858 -33.44925 -33.449318 -33.433353 -33.443214 -33.435875
-33.43187 -33.450397 -33.434258 -33.433174 -33.438725 -33.44634 -33.445072 -33.43598
-33.43883 -33.440334 -33.43181 -33.440075 -33.453526 -33.433792 -33.428284 -33.471046
-33.450294 -33.462017 -33.41733 -33.445274 -18.574364 -33.44206 -32.35965 -33.424778
-23.357718 -12.254035
